imitation_model.pth (torch, 5951 bytes, 8 tensors)

fc1.weight f4 [16, 8]
0	0xbe3a53a7	-0.18195973
1	0x3e15296b	0.14566581
2	0xbae129e2	-0.001717862
3	0x3e559ffa	0.20861807
4	0x3e4aca02	0.19803622
5	0xbe9d7746	-0.3075506
6	0x3e47d7a2	0.19515851
7	0xbba1eb3f	-0.0049413736
8	0xbe841051	-0.25793698
9	0x3e8553cf	0.26040503
10	0xbeb6d4c6	-0.35709208
11	0x3ea6e7bf	0.32598683
12	0x3e859d7f	0.26096722
13	0xbe307abc	-0.1723432
14	0xbe9c0587	-0.30472967
15	0x3eaf3bbc	0.3422526
16	0xbe923986	-0.28559512
17	0xbe256a46	-0.16153821
18	0x3dc2e682	0.09516622
19	0x3e5ef772	0.2177408
20	0x3e6857fa	0.2268981
21	0xbe99cf3c	-0.3004092
22	0xbdd729c9	-0.10506017
23	0xbdc2d38e	-0.09513007
24	0x3e055325	0.13019998
25	0x3e9c57df	0.3053579
26	0xbea42911	-0.3206258
27	0x3e84bdb0	0.2592597
28	0x3df0e3b2	0.117621794
29	0xbe84b3c7	-0.2591841
30	0xbe97ebbf	-0.29672047
31	0xbe94142a	-0.28921634
32	0xbe96ef9d	-0.29479685
33	0x3eb1b232	0.34706265
34	0x3d00d397	0.031451788
35	0x3ea19ab4	0.31563342
36	0x3d821747	0.06352096
37	0x3e3c2957	0.18375145
38	0x3e01841a	0.12648049
39	0x3e5e9aa8	0.21738684
40	0x3e9b053a	0.30277425
41	0xbe05b57b	-0.1305751
42	0xbea698dd	-0.325385
43	0xbe8aff86	-0.27148074
44	0x3e4c4e4e	0.19951746
45	0xbd2de1ff	-0.042451855
46	0x3c7ae0d4	0.015312392
47	0xbe83ead2	-0.2576509
48	0x3e9854a9	0.2975209
49	0x3d98cc64	0.074608594
50	0x3a919515	0.0011107052
51	0x3c9aa107	0.018875612
52	0x3ea920eb	0.33032927
53	0xbe580d76	-0.21098885
54	0x3e120d76	0.14262947
55	0x3e08fdfb	0.13378136
56	0xbe4274b5	-0.18989833
57	0xbe4b521a	-0.19855538
58	0x3e312550	0.1729939
59	0xbdaf8375	-0.08569995
60	0x3e0ed598	0.13948667
61	0x3d7fe08b	0.06247
62	0xbd0bd0a6	-0.03413453
63	0x3d8bfe46	0.06835608
64	0x3eaa3c74	0.33249247
65	0x3e3c70fe	0.18402478
66	0xbe999bb8	-0.30001616
67	0xbdce6b4f	-0.10079061
68	0xbe70695f	-0.23477696
69	0x3e27722c	0.16352147
70	0xbdee0c8f	-0.11623489
71	0xbe31f4a2	-0.17378476
72	0xbb22f0ed	-0.0024862841
73	0xbea3c02f	-0.31982562
74	0xbe8d8252	-0.2763849
75	0x3db75469	0.08951647
76	0xbea50917	-0.32233498
77	0x3e87f198	0.2655151
78	0x3e860677	0.26176807
79	0x3dd46340	0.10370493
80	0x3e75da37	0.24009024
81	0x3e57061c	0.20998424
82	0xbd0b92a9	-0.034075413
83	0x3e91e486	0.28494662
84	0x3ddf0ddd	0.10891316
85	0xbe9bc05a	-0.3042019
86	0x3e6db1bd	0.23212333
87	0x3e834262	0.25636584
88	0xbeb05155	-0.3443705
89	0x3ea0c5ec	0.31401002
90	0xbeabd0f0	-0.33557844
91	0xbd96144c	-0.0732809
92	0x3daca060	0.084290266
93	0xbe5c8cc8	-0.21538079
94	0xbd5e8652	-0.054327317
95	0x3e5f1505	0.21785362
96	0x3e370047	0.178712
97	0x3ddad0df	0.1068437
98	0x3dbe527c	0.092930764
99	0x3e26ca85	0.16288193
100	0x3db8cfb2	0.0902399
101	0x3eaac5f1	0.33354142
102	0x3e313cc3	0.17308335
103	0x3e4a19cb	0.19736402
104	0x3e5dcdda	0.21660557
105	0xbea0db8f	-0.3141751
106	0xbe81a0ea	-0.2531808
107	0xbe2a8856	-0.1665357
108	0x3dd111cf	0.10208475
109	0x3e812078	0.25220084
110	0xbe17e8fc	-0.1483497
111	0x3e0c8002	0.13720706
112	0xbe68e7c3	-0.2274466
113	0x3e80f509	0.25186947
114	0xbe980aff	-0.2969589
115	0x3e84ba8c	0.25923574
116	0xbdbe2646	-0.09284644
117	0x3ead93a9	0.33901718
118	0x3db47df2	0.08813085
119	0xbe149728	-0.14510787
120	0xbe1a8802	-0.15090945
121	0x3e6e14c1	0.23250104
122	0xbe706726	-0.23476848
123	0xbdce99aa	-0.10087903
124	0xbe8b4937	-0.27204296
125	0x3e8703b1	0.26370004
126	0x3e680416	0.22657809
127	0x3d011af6	0.031519853

fc1.bias f4 [16]
0	0x3e3e3f31	0.18578793
1	0xbe217b96	-0.157698
2	0xbe69920d	-0.2280962
3	0x3e4e9b5a	0.2017645
4	0x3e99fa1f	0.3007364
5	0x3ce91a1a	0.028454829
6	0xbca196b3	-0.01972518
7	0xbc64d7e4	-0.013967488
8	0x3d28ae13	0.041181635
9	0xbe4af029	-0.19818176
10	0x3e8152db	0.25258526
11	0xbe8e0844	-0.2774068
12	0x3c90dd5e	0.017683681
13	0xbe41da86	-0.18931016
14	0x3e841c7c	0.25802982
15	0x3c8310fd	0.015999312

fc2.weight f4 [16, 16]
0	0x3da63a13	0.081165455
1	0x3e114ecf	0.1419022
2	0xbccb683f	-0.024829982
3	0xbca094b2	-0.019602153
4	0x3d1c86fb	0.038214665
5	0xbe4c1c34	-0.19932634
6	0xbe6a2dba	-0.22869006
7	0xbe508d78	-0.20366466
8	0x3e6a371c	0.22872585
9	0x3e1ca0e8	0.15295756
10	0x3e631ea3	0.22179656
11	0xbe073767	-0.13204728
12	0xbe78834d	-0.24268837
13	0x3df98cbb	0.12185045
14	0xbe5e463d	-0.21706481
15	0x3e6b4dbe	0.22978875
16	0x3e0a9f9f	0.13537453
17	0xbdcd30ea	-0.10019095
18	0x3e49364e	0.19649622
19	0xbd5b185f	-0.05349004
20	0x3d122e89	0.03568891
21	0xbe71de82	-0.23620036
22	0x3df6b257	0.120457344
23	0x3a1334c2	0.00056154665
24	0x3dd7163c	0.10502288
25	0x3e2fe832	0.17178419
26	0xbb0e8a07	-0.0021749751
27	0xbdf74c57	-0.120751075
28	0x3e4b67e4	0.1986385
29	0xbcf2b5ef	-0.029627768
30	0x3e30eed5	0.17278607
31	0x3d6be20f	0.057588633
32	0xbe0295d6	-0.1275247
33	0xbe081af4	-0.13291532
34	0xbce14160	-0.027496994
35	0xba8b1900	-0.0010612309
36	0xbd9d31b4	-0.07675496
37	0x3d85cf88	0.06533724
38	0xbde9d384	-0.114172965
39	0xbdd38508	-0.10328108
40	0xbe534962	-0.20633462
41	0x3b93d4c0	0.0045114458
42	0x3d81f8d4	0.06346288
43	0xbe620606	-0.2207261
44	0x3d924a7c	0.07143113
45	0xbcbc49f0	-0.022984475
46	0x3e15b27a	0.14618865
47	0x3d3164a8	0.043308884
48	0xbe22254d	-0.15834542
49	0x3e70fb33	0.23533325
50	0xbde8b399	-0.113623805
51	0xbe17d20a	-0.14826217
52	0x3e62654b	0.22108953
53	0x3dd66108	0.10467726
54	0xbda612cb	-0.08109053
55	0xbe3c0b7c	-0.18363756
56	0xbc24a5a9	-0.010049262
57	0xbe7528b8	-0.23941314
58	0xbe091354	-0.1338628
59	0x3d68c2e3	0.056826483
60	0xbe46d6fb	-0.19417946
61	0x3d2acb4f	0.041697796
62	0x3e6bfc1c	0.23045391
63	0xbe5354e3	-0.2063785
64	0xbe05ace0	-0.13054228
65	0x3dec4384	0.11536315
66	0x3e1080a0	0.14111567
67	0xbdf6d78c	-0.12052831
68	0x3dab8596	0.08375089
69	0x3d9c0649	0.07618386
70	0x3ca04e82	0.019568685
71	0xbe3bc257	-0.18335854
72	0xbb8daa04	-0.004323246
73	0x3e4d41b8	0.20044601
74	0xbe302973	-0.17203312
75	0xbd428fdf	-0.047500487
76	0xbe00a60a	-0.12563339
77	0x3e0a22a9	0.13489784
78	0xbe372530	-0.1788528
79	0x3e211599	0.15730895
80	0xbe072b24	-0.1320005
81	0xbddcff97	-0.107909374
82	0xbc424200	-0.011856556
83	0xbbd0467e	-0.0063560596
84	0xbe538750	-0.20657086
85	0xbe4386da	-0.1909441
86	0xbe67d6f9	-0.226406
87	0x3b94d106	0.004541519
88	0xbe5f47af	-0.21804689
89	0x3d9d925c	0.076939315
90	0xbd87b2ba	-0.06625886
91	0x3e1c7d49	0.15282167
92	0x3e3c058f	0.18361495
93	0x3dd1de1f	0.10247444
94	0xbe468e16	-0.19390139
95	0x3de00e73	0.10940256
96	0xbe086634	-0.13320237
97	0xbe3eaa3c	-0.18619627
98	0xbcb968a0	-0.022632897
99	0xbe29b6e6	-0.16573676
100	0x3d0f1810	0.034935057
101	0x3e266f80	0.16253471
102	0xbd940f28	-0.07229453
103	0x3e0e89ec	0.139198
104	0xbe2b2246	-0.16712293
105	0xbe428266	-0.18995056
106	0xbe028d34	-0.12749177
107	0xbe029e34	-0.12755662
108	0x3dc2e2f4	0.09515944
109	0x3e1ddb6c	0.15415734
110	0xbd65eeb8	-0.056135863
111	0xbdcd02a4	-0.10010269
112	0x3e25859c	0.16164249
113	0xbd4fc81c	-0.05072795
114	0xbe196716	-0.1498073
115	0x3e6116fc	0.21981424
116	0x3e2a63be	0.16639611
117	0xbd215afd	-0.039393414
118	0xbdfaa53a	-0.12238546
119	0xbe4c9ed1	-0.19982459
120	0x3d032a4a	0.032022752
121	0x3bb9f8e8	0.005675424
122	0x3e693eba	0.22777835
123	0x3dc5434e	0.09631978
124	0xbdded93c	-0.10881278
125	0x3cef5a7f	0.029217957
126	0x3e27fdda	0.1640543
127	0xbd6793aa	-0.056537308
128	0x3e696439	0.22792138
129	0xbdeb1b2b	-0.11479791
130	0x3e66f7fc	0.22555536
131	0xbcd796e2	-0.026317064
132	0x3e5bd9ba	0.21469775
133	0xbe448a7f	-0.19193457
134	0xbd623943	-0.05523039
135	0x3dc5f240	0.09665346
136	0x3defee89	0.11715419
137	0x3e1f640c	0.15565509
138	0x3dc21fbb	0.09478708
139	0x3d684d19	0.05671415
140	0xbe1170cf	-0.1420319
141	0x3c3f32b3	0.0116698025
142	0x3db44920	0.0880301
143	0x3e57193f	0.21005724
144	0x3b7790ea	0.0037775584
145	0x3db65d45	0.089045085
146	0xbd614910	-0.05500132
147	0x3e5488c5	0.20755298
148	0x3de099d7	0.109668426
149	0xbe606bde	-0.21916148
150	0xbe0cc8ee	-0.13748524
151	0x3bff39a2	0.007788853
152	0xbe46c889	-0.19412436
153	0x3e1bf4c2	0.15230086
154	0x3db3eb82	0.08785154
155	0x3e519775	0.20467933
156	0xbe1f83aa	-0.1557757
157	0xbc1b20c7	-0.009468264
158	0xbe1689cf	-0.14701007
159	0x3d8abf73	0.06774797
160	0x3e5b6bae	0.21427795
161	0xbe5b2363	-0.21400218
162	0x3ca06af5	0.019582251
163	0xbd381b9a	-0.044948198
164	0x3e58e8f7	0.21182619
165	0xbe64debb	-0.2235059
166	0x3e0f94e4	0.14021641
167	0xbd65bcb4	-0.056088164
168	0x3e73ff9f	0.2382798
169	0x3bcc35a4	0.0062319804
170	0x3e506887	0.20352374
171	0x3cc1d49c	0.02366095
172	0xbdd6aba7	-0.10481959
173	0x3e40d04c	0.18829459
174	0x3d7df96c	0.062005445
175	0xbe1dea8b	-0.15421502
176	0x3bb2fef5	0.005462522
177	0xbe279001	-0.16363527
178	0x3cbc6959	0.022999452
179	0x3e0e403d	0.13891692
180	0x3da8fdb4	0.08251515
181	0xbe521d5a	-0.20519009
182	0x3e14773c	0.1449861
183	0x3d308922	0.04309953
184	0x3e64125d	0.2227263
185	0x3e5c193f	0.21494006
186	0xbd44445c	-0.047916755
187	0xbe1002fe	-0.14063641
188	0x3e4d0452	0.2002118
189	0x3d9b06ee	0.07569681
190	0x3db1fcb9	0.08690781
191	0x3e2ad80b	0.16683976
192	0x3e60b2a0	0.2194314
193	0xbd476699	-0.04868183
194	0xbdae35d2	-0.08506359
195	0x3e5b9184	0.21442229
196	0x3e003e96	0.12523875
197	0xbe022828	-0.12710631
198	0x3e3dfab7	0.18552671
199	0x3e2a4e67	0.1663147
200	0xbdea87c4	-0.114516765
201	0xbe515be0	-0.20445204
202	0x3d976544	0.07392362
203	0x3c8ca041	0.017166259
204	0x3d706ef5	0.058699567
205	0xbde0d697	-0.1097843
206	0x3bcdea45	0.0062840306
207	0xbe4b3f26	-0.19848308
208	0x3cccf55e	0.025019344
209	0x3d19a4db	0.037510734
210	0x3e6bd5d9	0.23030795
211	0xbc32608a	-0.0108872745
212	0x3d6c6ede	0.05772292
213	0x3c0b8874	0.00851642
214	0x3e135226	0.14386806
215	0xbe6e14cb	-0.2325012
216	0xbe5cd690	-0.21566224
217	0xbe738a86	-0.23783311
218	0xbcb9d3db	-0.022684028
219	0x3e7fa7d3	0.24966364
220	0xbe1cdbeb	-0.15318267
221	0x3dbf64c9	0.09345395
222	0xbe74be2b	-0.23900668
223	0xbe4ea6e1	-0.20180847
224	0x3c54e480	0.012993932
225	0xbe4e7ad8	-0.20164049
226	0x3e2d3288	0.16913807
227	0x3e381988	0.1797849
228	0xbda9da58	-0.08293599
229	0xbe72bd26	-0.23704967
230	0xbe546544	-0.20741755
231	0xbdd8415c	-0.10559341
232	0x3de5f9ec	0.112293094
233	0x3dd2fa90	0.10301697
234	0xbe1ec8aa	-0.15506235
235	0x3d471400	0.048603058
236	0x3d3217a0	0.04347956
237	0xbd8e5de0	-0.06951499
238	0xbd471bc0	-0.04861045
239	0xbd77f4f8	-0.060536355
240	0xbe082207	-0.1329423
241	0xbe4fdd69	-0.20299305
242	0xbe5f8723	-0.21828894
243	0x3dfbd4e8	0.12296468
244	0xbdac68d9	-0.084184356
245	0x3c07f5bd	0.008298335
246	0x3e37f730	0.17965388
247	0x3dd6894d	0.10475407
248	0xbdc2c382	-0.095099464
249	0x3e63fe30	0.22264934
250	0x3e55260e	0.20815298
251	0xbe058bb3	-0.13041572
252	0xbdcc0b13	-0.0996305
253	0xbde9e937	-0.11421435
254	0xbe3d9754	-0.18514758
255	0x3e1a23bc	0.15052694

fc2.bias f4 [16]
0	0x3d230e31	0.039808456
1	0xbd75ba53	-0.059992146
2	0xbe53d91a	-0.20688286
3	0xbe150421	-0.14552356
4	0xbda8e172	-0.08246125
5	0x3e04401f	0.12915085
6	0xbe3d0926	-0.18460521
7	0xbe506a28	-0.20352995
8	0x3e38edff	0.18059538
9	0x3d3e03c0	0.046390295
10	0x3d0ee877	0.034889665
11	0xbdaaa19f	-0.08331608
12	0xbdcf50c3	-0.10122826
13	0x3c7d1d9a	0.015448952
14	0xbdf61998	-0.120166
15	0xbda68760	-0.081312895

fc3.weight f4 [16, 16]
0	0xbd9a770d	-0.075422384
1	0x3e4f8a6f	0.20267652
2	0xbe553522	-0.2082105
3	0x3df69103	0.120393775
4	0xbcac868c	-0.02106025
5	0xbe538f1c	-0.2066006
6	0x3e468146	0.19385251
7	0x3e026188	0.12732518
8	0x3dce78a0	0.10081601
9	0xbe5f2723	-0.21792273
10	0xbe1cfde0	-0.1533122
11	0x3e646926	0.22305736
12	0xbe8314f5	-0.25601926
13	0x3d910912	0.07081808
14	0x3dabcff4	0.08389273
15	0x3e3ea5a2	0.18617871
16	0xbe4feb22	-0.2030454
17	0xbcc22da0	-0.023703396
18	0x3dd66024	0.10467556
19	0xbc96f1d0	-0.018425852
20	0x3c920c20	0.017828047
21	0x3dfa231c	0.12213728
22	0x3e22464e	0.15847132
23	0xbd51cc70	-0.051220357
24	0xbddb31d0	-0.1070286
25	0x3d0d2438	0.03445837
26	0x3e7c1f8c	0.24621409
27	0xbe78d6c4	-0.24300677
28	0x3e440fba	0.19146624
29	0x3d4b6f60	0.049666762
30	0x3e767100	0.24066544
31	0xbe641b42	-0.22276023
32	0xbe777d21	-0.24168827
33	0xbe3bf431	-0.1835487
34	0x3c9d2d60	0.019186676
35	0x3df4595c	0.119311064
36	0x3e2eab30	0.1705749
37	0xbe2cc7d2	-0.168731
38	0xbd88078c	-0.066420645
39	0x3e35460c	0.17702502
40	0x3e5f6f7c	0.21819872
41	0x3e00c08e	0.12573454
42	0x3e52d4b7	0.20588957
43	0x3e754cd1	0.23955084
44	0x3e369c7a	0.17833129
45	0xbdad3b5c	-0.084585875
46	0xbe18e70a	-0.14931884
47	0x3e172660	0.14760733
48	0xbe70157c	-0.23445696
49	0x3d749830	0.05971545
50	0xbd3bad28	-0.04581943
51	0x3e80255a	0.25028497
52	0xba1bf227	-0.0005948864
53	0x3c065f00	0.008201361
54	0x3dee242c	0.11627993
55	0xbe1f3857	-0.15548836
56	0x3e7cb17b	0.24677078
57	0x3dca271c	0.09870741
58	0xbde6f34d	-0.11276875
59	0x3e8224ee	0.254188
60	0xbe4e4e9e	-0.20147178
61	0xbe5118dc	-0.2041964
62	0xbdaa73a0	-0.08322835
63	0x3c29f2c0	0.0103728175
64	0xbe5ad6ba	-0.21370974
65	0x3d72dda8	0.05929342
66	0xbdddfe34	-0.10839501
67	0xbe482554	-0.1954549
68	0x3e06c2e2	0.1316028
69	0x3dbd54bc	0.092446774
70	0xbe18a184	-0.14905363
71	0xbe34e3d8	-0.1766504
72	0xbdb61aa4	-0.088918
73	0x3d3902b0	0.04516858
74	0xbe0c179a	-0.13680878
75	0x3df751d0	0.12076151
76	0x3e2cd982	0.16879848
77	0x3e3fcf28	0.18731368
78	0xbdd7f090	-0.105439305
79	0x3d773ac0	0.060358763
80	0x3e341682	0.17586711
81	0x3db56d23	0.08858707
82	0x3dbb3cf0	0.09142482
83	0x3e6029a1	0.2189088
84	0x3e411db6	0.1885899
85	0xbe2b55ec	-0.16731995
86	0x3ce46450	0.027879864
87	0xbe7230b6	-0.23651394
88	0xbe08cb2b	-0.13358752
89	0xbe73a916	-0.2379497
90	0xbdb3e11d	-0.08783171
91	0x3d95bf7c	0.07311913
92	0xbcc14e20	-0.023596823
93	0x3dce697a	0.10078712
94	0xbdf64560	-0.12024951
95	0xb9baa000	-0.00035595894
96	0xbe6f23de	-0.23353526
97	0x3e2ed186	0.17072114
98	0x3df701c8	0.120608866
99	0x3e7a40c8	0.24438775
100	0xbe688003	-0.22705083
101	0xbe2f07a8	-0.17092764
102	0xbe75bf8a	-0.23998848
103	0x3c3d3a25	0.011549507
104	0xbdfc625d	-0.12323449
105	0x3da815b8	0.082072675
106	0xbd3eed99	-0.04661331
107	0x3e29f0db	0.16595785
108	0x3d17ba61	0.03704298
109	0x3dcb90a9	0.09939701
110	0xbe0b72c8	-0.13618004
111	0x3e1bcf94	0.15215904
112	0x3e7b3d94	0.24535209
113	0xbde4133e	-0.11136483
114	0xbde80194	-0.11328426
115	0xbe48f81b	-0.19625895
116	0xbdb3a00c	-0.08770761
117	0xbe514932	-0.20438078
118	0xbb442680	-0.0029930174
119	0x3e78c179	0.24292554
120	0x3e4d7e79	0.20067777
121	0x3c788cad	0.0151702585
122	0x3d50e922	0.051003583
123	0x3d891043	0.06692555
124	0xbe386b64	-0.18009716
125	0xbda65228	-0.08121139
126	0x3e0903dc	0.13380378
127	0xbcdc6b56	-0.02690665
128	0xbdaf7d9b	-0.08568879
129	0xbc85f78b	-0.01635339
130	0x3d71ac10	0.059001982
131	0x3d9bf6f1	0.0761546
132	0x3dce2a74	0.10066691
133	0x3d3fa5e8	0.04678908
134	0x3d704130	0.058655918
135	0x3dccdb5a	0.100027755
136	0x3dd19500	0.102334976
137	0xbdb8f10c	-0.09030351
138	0x3de0a7fe	0.10969542
139	0x3df3c804	0.11903384
140	0x3e255cb9	0.16148652
141	0x3e57a5fc	0.21059412
142	0xbdbb6ec0	-0.09151983
143	0x3e448a93	0.19193487
144	0xbdc821b4	-0.09772053
145	0xbe15f6e2	-0.1464496
146	0x3e7c9a84	0.24668318
147	0x3e15576a	0.14584127
148	0xbdc0b000	-0.09408569
149	0x3d93b9a8	0.072131455
150	0x3dfbe314	0.12299171
151	0xbe023402	-0.12715152
152	0xbd638fb0	-0.055556953
153	0x3e1edcc0	0.15513897
154	0x3cfb93c0	0.030710101
155	0x3e7b6d2e	0.24553367
156	0x3d5b38e0	0.053521037
157	0x3e2caf66	0.16863784
158	0xbc819740	-0.015819192
159	0xbd11a470	-0.03555721
160	0x3d716dcc	0.0589426
161	0x3bbdc28d	0.0057910145
162	0x3e6ea56e	0.23305294
163	0x3e234a58	0.15946329
164	0x3dcd26a4	0.10017136
165	0xbe1f90e9	-0.15582623
166	0xbe6146fc	-0.21999735
167	0x3d5e7faf	0.054320987
168	0x3e195f81	0.14977838
169	0xbd0c7a51	-0.034296338
170	0x3e722a4e	0.2364895
171	0xbd388ff6	-0.045059167
172	0x3db84529	0.08997566
173	0xbe48f978	-0.19626415
174	0x3e6faa1a	0.23404732
175	0x3e446ff1	0.19183327
176	0xbe5ab77f	-0.2135906
177	0x3decb789	0.11558444
178	0x3e62915a	0.2212576
179	0x3e4f54ea	0.20247236
180	0x3d487f48	0.04894951
181	0xbe293608	-0.16524518
182	0xbda3a2d0	-0.079900384
183	0xbe22d14a	-0.1590015
184	0x3df741e0	0.120731115
185	0x3e7aec4e	0.24504206
186	0x3d6d4771	0.05792946
187	0xbe0eb1fd	-0.13935085
188	0xb9f450ca	-0.000465995
189	0x3e5ce664	0.21572262
190	0x3d9c6bc8	0.07637745
191	0x3e4fe0c3	0.20300584
192	0x3e48df31	0.19616391
193	0x3def0b48	0.116720736
194	0x3e23d12e	0.15997764
195	0xbe221882	-0.15829661
196	0xbd0056e8	-0.03133288
197	0x3cb9a4c9	0.022661583
198	0x3e56cf70	0.20977569
199	0xbdaff5f7	-0.08591836
200	0x3e4f7c44	0.20262247
201	0x3e5b97f0	0.21444678
202	0x3d039638	0.03212568
203	0xbd33e8a0	-0.04392302
204	0xbe416a5f	-0.18888234
205	0x3e051ca8	0.12999213
206	0x3e6c60dc	0.23083824
207	0xbe2e5f96	-0.1702865
208	0xbe6eb254	-0.23310214
209	0x3e13250b	0.143696
210	0x3e3a323e	0.18183228
211	0x3acc84dc	0.001560356
212	0x3e56e9c2	0.20987609
213	0xbde9c33b	-0.114141904
214	0xbe1265d8	-0.14296663
215	0xbdd27082	-0.102753654
216	0x3e4f4852	0.20242432
217	0xbdf13bac	-0.1177896
218	0xbe5ccc10	-0.21562219
219	0x3e503737	0.20333563
220	0xbd70ae81	-0.05876017
221	0x3e440194	0.19141227
222	0xbd204b70	-0.039134443
223	0xbd02fa02	-0.031976707
224	0xbe4c8eef	-0.199764
225	0x3e13a2ad	0.14417525
226	0xbc357220	-0.011074573
227	0x3d3bd74a	0.045859613
228	0xbd3b5ff8	-0.04574582
229	0x3e6009aa	0.21878687
230	0xbce783d0	-0.028261095
231	0xbd8d4201	-0.06897355
232	0xbde9f87a	-0.11424346
233	0xbe1d492e	-0.15359947
234	0xbe4cffb5	-0.2001942
235	0x3e148c02	0.14506534
236	0x3e121ab4	0.14267999
237	0xbe606a0a	-0.2191545
238	0x3d96f348	0.07370621
239	0x3e1cccf9	0.15312566
240	0x3e170d42	0.14751151
241	0x3e7500df	0.23926114
242	0x3b2f3400	0.0026733875
243	0x3e3302c0	0.17481518
244	0x3e00f4e3	0.12593417
245	0xbda02bdc	-0.078208655
246	0xbd9909fc	-0.074726075
247	0x3d9b77c8	0.07591206
248	0x3c78ff71	0.015197621
249	0x3db4b2f8	0.08823198
250	0x3e123d98	0.14281309
251	0x3ceaa0d9	0.028641151
252	0xbdce35f8	-0.100688875
253	0xbe32aad6	-0.17447981
254	0xbdcea46c	-0.10089955
255	0xbdc74c3c	-0.097313374

fc3.bias f4 [16]
0	0x3e25a0e2	0.16174653
1	0xbe781c96	-0.24229655
2	0x3e0ca1d9	0.13733615
3	0xbe19a6f3	-0.15005092
4	0xbe43cafa	-0.19120398
5	0xbb8d922b	-0.004320403
6	0x3e613c75	0.21995719
7	0xbcd53056	-0.026024025
8	0xbdda7fc3	-0.106689
9	0xbe1c545a	-0.15266553
10	0x3e31f000	0.17376709
11	0xbe187883	-0.14889722
12	0x3c02f9ac	0.007994097
13	0x3e0c6733	0.13711242
14	0x3dc7abdf	0.09749579
15	0xbe6e7a25	-0.23288782

fc4.weight f4 [4, 16]
0	0x3e06890b	0.13138215
1	0x3e724484	0.23658949
2	0x3c3ccfa7	0.011524118
3	0x3d9b1230	0.07571828
4	0xbe5daa42	-0.2164698
5	0x3e74aceb	0.23894088
6	0x3e352618	0.17690313
7	0x3d94036e	0.07227217
8	0xbdc6d9ed	-0.09709535
9	0xbcd9a4f0	-0.026567906
10	0x3e3e029f	0.18555687
11	0x3d0dfae0	0.03466308
12	0xbd36e6f2	-0.04465384
13	0xbe7b9811	-0.24569727
14	0xbe77ca16	-0.24198183
15	0xbcae34df	-0.021265445
16	0xbd192087	-0.037384536
17	0xbe1ded22	-0.1542249
18	0x3de66320	0.11249375
19	0xbda529c3	-0.08064606
20	0xbb9bb600	-0.0047519207
21	0xbd9a0ef3	-0.075223826
22	0xbe6f24ee	-0.23353931
23	0x3d2d1afc	0.042262062
24	0x3d23500e	0.039871268
25	0x3e203646	0.15645704
26	0x3e81e2bc	0.25368297
27	0x3e249843	0.16073708
28	0x3d5c745f	0.053821918
29	0x3e653fb9	0.2238759
30	0x3df431ff	0.119235985
31	0xbdff19d5	-0.12456099
32	0x3e3babc8	0.18327248
33	0x3e3109d2	0.17288902
34	0xbe0f114e	-0.13971445
35	0x3e4d7c52	0.20066956
36	0x3e554c24	0.20829827
37	0x3d0d2304	0.03445722
38	0x3e67ffbf	0.22656153
39	0xbe50a080	-0.20373726
40	0x3d53cf42	0.05171133
41	0x3dbe302c	0.09286532
42	0xbe78da58	-0.24302042
43	0xbdd98030	-0.10620153
44	0xbd75f7f0	-0.060050905
45	0xbe317097	-0.17328106
46	0x3db6e64f	0.08930647
47	0xbdfd4d9a	-0.12368317
48	0xbe666f64	-0.2250343
49	0x3e28284c	0.16421622
50	0xbe2f64b4	-0.17128259
51	0x3e40cd69	0.18828358
52	0xbe11e388	-0.14246953
53	0x3d40eefa	0.047102906
54	0x3e4cd817	0.20004307
55	0xbe10ca40	-0.14139652
56	0x3da71869	0.08158953
57	0x3de42600	0.111400604
58	0xbe664a3a	-0.22489253
59	0x3d676a96	0.056498133
60	0x3c94d609	0.018168466
61	0xbdb8683c	-0.09004256
62	0x3ca4967e	0.020091292
63	0xbe606ebf	-0.21917246

fc4.bias f4 [4]
0	0xbc8f67ba	-0.017505515
1	0x3dd8cd79	0.10586066
2	0x3de5245a	0.11188574
3	0x3e09c672	0.13454607
