primary_q_network_weights.pth (torch_old, 38053 bytes, 11 tensors)

fc1.weight f4 [64, 8]
0.3809918 0.18837744 0.30246347 -0.017660713 0.317568 0.20018612 0.10770771 0.14953731
-0.019803006 0.12355943 0.15544465 -0.19941147 0.985189 0.009683442 -0.026898822 0.31742626
-0.08133093 0.7801557 -0.5982648 0.10474166 0.5991274 -0.14370611 0.005864878 -0.41125157
-0.0065741097 0.03825104 -0.18011205 -0.5449607 1.6537156 0.007904763 -0.06893277 -0.326634
0.12037582 -0.13479191 -0.043844804 -0.0048989695 1.1521993 -0.080014676 -0.005648194 0.031517047
0.111321054 0.18912786 0.37331176 -0.061095793 -0.16673934 0.5975163 0.2380869 0.34853598
0.36357957 -0.07625227 -0.617863 0.41647005 0.28471693 -0.12442244 -0.39265388 0.28569603
0.034998875 -0.25985757 0.36655086 -0.56404513 0.8185175 -0.25692806 -0.01990269 -0.10164574
-0.42538586 0.29751405 -0.47524667 -0.028558044 0.25511757 0.060410418 0.34085143 -0.43140796
0.12750725 -0.22717583 -0.59690726 -0.056660768 -0.19858444 0.04934068 0.14202376 -0.29723737
0.13349377 0.19515541 0.25617185 -0.05378773 0.44352132 0.6978891 -0.17887709 -0.13088372
-0.091820754 0.17716874 -0.3719136 0.5025387 -0.48937306 0.049941495 -0.47806913 0.26561424
-0.6515943 -0.30464336 -0.1740769 -0.21757634 0.586413 -0.09500622 -0.53288275 -0.068122014
0.18110095 -0.01221557 0.22828974 -0.02237462 0.17051224 0.9247061 0.16240233 0.369544
0.25746736 -0.38832012 0.47310436 -0.07961279 -0.2532084 -0.4380809 -0.08199063 0.2638255
0.2973163 0.022572024 0.53345543 0.013960006 -0.41100058 -0.11450016 -0.1693494 -0.23214555
-0.06976404 0.46142608 0.35812175 0.38617146 0.22697102 -0.51550627 0.14701472 -0.42343453
0.08845628 0.5216462 -0.2713285 0.31770173 0.17139816 0.681432 0.118432954 -0.2637983
-0.49693677 0.10704465 -0.18728928 -0.030806286 -0.5642381 -0.26191008 0.5111872 -0.25082007
0.1552399 0.21231274 -0.054279864 -0.29164365 0.5121753 0.33446008 0.10518216 0.34106013
-0.35091358 0.11896705 0.30129772 0.42706522 0.17536566 0.1397331 -0.20513462 -0.18267323
0.057996135 0.2327054 0.31783462 0.103037976 -0.015994767 0.39396793 0.32119998 0.4599094
0.59317553 -0.37896603 0.3146194 -0.22727291 0.22421263 0.09419565 -0.08847607 0.18467748
0.54501027 -0.24010593 0.50987494 -0.2133849 -0.034761477 0.031430703 0.30428606 -0.31602615
0.14000075 -0.99450755 0.046354704 0.5954384 -0.8020685 -0.04156317 -0.18022469 0.25432166
-0.26635006 0.6134363 -0.101635724 0.14103036 0.06730188 0.5067627 -0.22910881 0.04432182
0.28498155 -1.0218608 -0.0029400624 -0.26675445 -0.70435417 -0.20005493 0.18668218 -0.0702068
-0.49908942 0.022797694 -0.044289995 -0.061641414 0.43571097 0.5667378 -0.5161839 -0.6363713
-0.6548849 -0.1151535 -0.25644943 -0.123437874 0.211391 0.47203332 -0.19128115 -0.4045223
-0.33017603 -0.35086557 -0.25626883 0.006108577 0.25742218 0.24117045 0.29766026 0.07002198
-0.08404241 0.5475266 -0.18350351 0.03921778 -0.37486145 -0.00705437 -0.46535 -0.28804
0.06421124 0.35272396 0.1766128 0.053753465 -0.17155145 -0.3094095 -0.40516663 -0.40839478
00000000: 5b11 c33e 04e6 403e 7edc 9a3e 33ad 90bc
00000010: 4698 a23e 97fd 4c3e dc95 dc3d 4f20 193e
00000020: ea39 a2bc ba0c fd3d e22c 1f3e 8532 4cbe
00000030: 5935 7c3f 4da7 1e3c eb5a dcbc b285 a23e
00000040: d590 a6bd 49b8 473f e227 19bf cc82 d63d
00000050: 6a60 193f b227 13be 2a2e c03b 918f d2be
00000060: a16b d7bb 1fad 1c3d 4b6f 38be 8b82 0bbf
00000070: f4ac d33f fb82 013c a02c 8dbd 923c a7be
00000080: 9987 f63d e406 0abe 9c96 33bd 8987 a0bb
00000090: 447b 933f bcde a3bd 7c14 b9bb 0518 013d
000000a0: 4bfc e33d bcaa 413e b822 bf3e 953f 7abd
000000b0: b8bd 2abe d4f6 183f 0dcd 733e 4f73 b23e
000000c0: 1a27 ba3e 262a 9cbd 452c 1ebf 903b d53e
000000d0: 6bc6 913e 31d1 febd ee09 c9be c046 923e
000000e0: fb5a 0f3d 0d0c 85be 8eac bb3e 4365 10bf
000000f0: 5d8a 513f 138c 83be f70a a3bc a42b d0bd
00000100: 2dcc d9be c353 983e 8853 f3be 8ff2 e9bc
00000110: c59e 823e ea70 773d 1484 ae3e 81e1 dcbe
00000120: 4391 023e c8a0 68be eace 18bf 1f15 68bd
00000130: b859 4bbe 7419 4a3d ad6e 113e 7f2f 98be
00000140: 97b2 083e d2d6 473e f528 833e 8650 5cbd
00000150: 3a15 e33e dca8 323f 8e2b 37be 6206 06be
00000160: 850c bcbd b96b 353e 766b bebe 60a6 003f
00000170: 1b8f fabe 748f 4c3d 7ac5 f4be 97fe 873e
00000180: e2ce 26bf 37fa 9bbe 3741 32be 55cc 5ebe
00000190: 2a1f 163f 9f92 c2bd 016b 08bf 8e83 8bbd
000001a0: 8772 393e d023 48bc c9c4 693e fb4a b7bc
000001b0: c39a 2e3e 8ab9 6c3f cc4c 263e df34 bd3e
000001c0: c3d2 833e e5d1 c6be bc3a f23e 080c a3bd
000001d0: 88a4 81be 244c e0be b4ea a7bd 2314 873e
000001e0: d839 983e f7e8 b83c 8990 083f 82b8 643c
000001f0: ab6e d2be 0f7f eabd ee69 2dbe 90b7 6dbe
00000200: 73e0 8ebd 0a40 ec3e bc5b b73e 44b8 c53e
00000210: 176b 683e 38f8 03bf 078b 163e 69cc d8be
00000220: 9128 b53d 9b8a 053f 92eb 8abe cda9 a23e
00000230: 0083 2f3e 5472 2e3f fa8c f23d 9210 87be
00000240: 7f6e febe 3a3a db3d c3c8 3fbe 775d fcbc
00000250: e871 10bf 1419 86be 2add 023f 7d6b 80be
00000260: 35f7 1e3e 8368 593e 9054 5ebd 5152 95be
00000270: ec1d 033f 5a3e ab3e bf69 d73d 6f9f ae3e
00000280: f2aa b3be ffa4 f33d b243 9a3e 4ba8 da3e
00000290: 0e93 333e 3216 0f3e cf0e 52be b10e 3bbe
000002a0: 5b8d 6d3d 534a 6e3e 38bb a23e 9305 d33d
000002b0: 7507 83bc 2ab6 c93e 5374 a43e 3f79 eb3e
000002c0: 5ada 173f d607 c2be cb15 a13e 3bba 68be
000002d0: ff97 653e a6e9 c03d f132 b5bd 181c 3d3e
000002e0: cb85 0b3f 54de 75be 2a87 023f 9281 5abe
000002f0: 0d62 0ebd 7bbd 003d 62cb 9b3e 2ece a1be
00000300: 5b5c 0f3e 0c98 7ebf 6ede 3d3d a76e 183f
00000310: 5c54 4dbf 243e 2abd d28c 38be 7336 823e
00000320: 095f 88be 290a 1d3f 6426 d0bd 436a 103e
00000330: 91d5 893d 33bb 013f 809b 6abe cc8a 353d
00000340: 1ae9 913e 56cc 82bf 10ae 40bb 0a94 88be
00000350: 8e50 34bf 33db 4cbe 9d29 3f3e 95c8 8fbd
00000360: a688 ffbe 3bc2 ba3c 6d69 35bd b57b 7cbd
00000370: 8215 df3e ba15 113f a124 04bf 3be9 22bf
00000380: 89a6 27bf 99d5 ebbd 574d 83be ffcc fcbd
00000390: e276 583e 5aae f13e 35df 43be 8c1d cfbe
000003a0: d50c a9be a7a4 b3be ab35 83be 752a c83b
000003b0: d7cc 833e 63f5 763e ed66 983e af67 8f3d
000003c0: 6d1e acbd b42a 0c3f 58e8 3bbe d3a2 203d
000003d0: d7ed bfbe 5828 e7bb 5b42 eebe fb79 93be
000003e0: 2f81 833d 3c98 b43e fcd9 343e 982c 5c3d
000003f0: 2fab 2fbe ec6a 9ebe 0072 cfbe 1f19 d1be

fc1.bias f4 [64]
0.34560582 -0.05015141 -0.08873303 -0.06333636 0.10426821 0.2563594 0.17111932 0.2158971
-0.39533845 0.2293573 -0.011135892 0.3205573 -0.068893015 -0.13861093 0.3503012 -0.35714173
0.26236033 0.41387683 -0.2774727 -0.2919086 0.48205942 -0.31662816 0.045506354 -0.028449364
0.12640896 0.2945059 0.10767697 0.01900912 -0.3056379 0.40825665 -0.38120735 -0.18956445
-0.3555497 0.11754795 0.50863177 0.103626244 -0.06998139 0.20985155 0.064647414 -0.33793998
-0.0918053 0.21747212 0.22453341 0.35515016 0.08012319 0.16123913 0.25441697 -0.21695341
-0.38328183 -0.088356204 -0.27713513 0.20246376 0.44132376 0.07075597 0.020384854 0.25771418
0.3691234 -0.22428796 0.011987864 0.3730949 -0.26276386 0.36017212 0.4323453 0.25076225
00000000: 3ff3 b03e 916b 4dbd aab9 b5bd 7eb6 81bd
00000010: 928a d53d 8a41 833e e739 2f3e 2114 5d3e
00000020: cd69 cabe a4dc 6a3e 5173 36bc 1620 a43e
00000030: c817 8dbd 06f0 0dbe ae5a b33e 48db b6be
00000040: 1854 863e aae7 d33e e710 8ebe 0b75 95be
00000050: 7ed0 f63e 161d a2be df64 3a3d a40e e9bc
00000060: 5a71 013e 7ac9 963e be85 dc3d 04b9 9b3c
00000070: 927c 9cbe 0407 d13e 9c2d c3be 2f1d 42be
00000080: 9c0a b6be fbbc f03d b135 023f ff39 d43d
00000090: 6752 8fbd 53e3 563e dd65 843d 7806 adbe
000000a0: 6b04 bcbd 03b1 5e3e 16ec 653e 3ed6 b53e
000000b0: a117 a43d df1b 253e f142 823e 0929 5ebe
000000c0: 843d c4be 19f4 b4bd a8e4 8dbe a952 4f3e
000000d0: 30f5 e13e 82e8 903d 23fe a63c 1df3 833e
000000e0: befd bc3e beab 65be bf68 443c 4b06 bf3e
000000f0: fc88 86be 7b68 b83e 5d5c dd3e e963 803e

fc2.weight f4 [64, 64]
-0.038652923 -0.30218992 0.37654996 0.22546746 -0.08254309 -0.12236937 -0.05211886 -0.14086178
0.38871545 0.11555702 0.17672583 -0.022382552 0.5526682 0.45924345 -0.059864413 0.63270205
0.27056506 0.027359692 -0.19831276 -0.15925838 0.05398742 0.19325465 -0.10746268 0.03177074
0.025572728 0.17148791 -0.40177277 0.30811343 0.33862978 0.054348227 -0.65695304 -0.4452424
0.026839288 -0.6574846 0.42340383 -0.13015004 -0.07809999 -0.2740334 0.08289866 -0.10589062
-0.3105389 -0.08761439 -0.19585201 0.12687999 0.36116564 0.08542312 0.39975435 -0.28795335
-0.013610806 -0.24213463 0.32210523 -0.27715826 0.060447928 1.2308955 -0.5200379 0.43120426
0.47897863 -0.4545031 -0.10033625 0.01920177 0.44707134 -0.278134 0.15831466 -0.019984502
0.030949567 -0.4462738 0.057856258 -0.21323061 -0.26551476 -0.22414857 0.21325867 -0.14174499
0.4084314 0.043514192 -0.019492293 0.07854952 0.6477868 0.40426472 0.052044507 0.32525292
0.14066525 0.1903622 0.38306704 -0.5963769 0.20321675 0.102464914 -0.00481649 0.082214534
-0.9744239 0.30671558 -0.45743746 0.22965698 0.10021122 0.22112149 -0.22086857 -0.005418169
0.45679146 -0.63681877 0.31526712 0.16084044 0.19069515 -0.29205352 0.21779953 0.23647842
0.24315186 -0.016091174 -0.3433672 0.047434576 0.32394895 0.051541872 0.3610505 0.07134706
0.27465686 -1.4807811 0.20365062 -0.294222 0.18004307 -0.72107494 -0.55516094 0.40143472
0.48534662 -0.0116314525 -0.6819934 0.033700082 0.13154756 -0.052824672 0.4849047 0.18469603
-0.020716345 0.22319542 0.48704615 0.22280474 -0.13065481 -0.23201759 -0.21329634 0.22212626
0.4848798 0.09442548 -0.26073903 0.03018358 0.44967982 -0.33214173 0.10286857 0.017703675
-0.2947469 -0.17094237 -0.34827894 0.3302027 0.10763379 -0.14356828 -0.29421523 -0.2383514
-0.23214038 -0.36496034 -0.0883798 0.07976639 -0.0012066612 0.0002498829 0.35006294 -0.27047643
-0.15444137 0.091640465 -0.30374244 -0.0058976677 0.62572205 0.32668597 0.1975693 0.033237744
0.33072034 0.12831593 0.21112974 -0.043248728 0.4723101 -0.5737839 -0.012671281 -0.07136911
0.5185345 -0.878203 0.15031163 0.3013546 -0.44906706 -0.7326688 0.13992657 -0.7145885
-0.05762969 0.11157914 0.13267016 0.22190191 -0.21910454 0.056162637 0.18359563 0.07695381
0.31989855 0.29869607 0.3842976 0.20812067 0.026786668 -0.07394105 0.21989408 -0.20128489
0.5298464 0.15322398 0.5900465 0.3940407 0.3823163 -0.18403386 -0.18409613 -0.22335704
0.03232039 0.29925194 0.41012353 0.025459547 0.4187772 -0.13995597 0.083625 0.4023073
0.22625867 0.16358358 0.02640411 0.36901906 0.13175255 -0.090866394 -0.04266324 0.66547483
0.5207288 0.36110315 -0.119651005 -0.13321906 0.33290777 0.47359827 0.47553757 0.40986842
-0.4509752 -0.1196772 0.42862266 0.28357515 0.31068388 -0.042478867 0.22997943 0.020680154
0.094847545 0.2864034 0.7204249 -0.13232416 -0.033666596 -0.7358506 0.2616354 0.20509209
0.1343411 0.25271472 0.025431426 0.19795473 1.35702 -0.18686429 0.31872103 -0.020618208
00000000: 8752 1ebd a3b8 9abe 28cb c03e f1e0 663e
00000010: 5a0c a9bd cb9c fabd 967a 55bd 123e 10be
00000020: b605 c73e 29a9 ec3d 9ef7 343e 9d5b b7bc
00000030: aa7b 0d3f f521 eb3e 6334 75bd c3f8 213f
00000040: 8187 8a3e 6f21 e03c 8012 4bbe a114 23be
00000050: ea21 5d3d 8ce4 453e 6515 dcbd 0922 023d
00000060: e67d d13c 879a 2f3e 29b5 cdbe 0bc1 9d3e
00000070: e260 ad3e 3f9c 5e3d 132e 28bf d0f6 e3be
00000080: 11de db3c e950 28bf 63c8 d83e 0d46 05be
00000090: e3f2 9fbd 1b4e 8cbe c6c6 a93d 2edd d8bd
000000a0: f4fe 9ebe 2c6f b3bd 6e8d 48be d4ec 013e
000000b0: b4ea b83e 51f2 ae3d 9aac cc3e 9f6e 93be
000000c0: dcff 5ebc 24f2 77be faea a43e b0e7 8dbe
000000d0: 3f98 773d fc8d 9d3f 3421 05bf cec6 dc3e
000000e0: b03c f53e a1b4 e8be 187d cdbd 084d 9d3c
000000f0: 89e6 e43e 9467 8ebe 3d1d 223e 8ab6 a3bc
00000100: f289 fd3c 007e e4be affa 6c3d 2059 5abe
00000110: 8df1 87be 3487 65be 7b60 5a3e 9925 11be
00000120: ec1d d13e f03b 323d 4dae 9fbc 92de a03d
00000130: 5bd5 253f c9fb ce3e 9f2c 553d 8d87 a63e
00000140: 8d0a 103e 4fee 423e 5d21 c43e 28ac 18bf
00000150: 0d18 503e 20d9 d13d a6d3 9dbb 1860 a83d
00000160: d873 79bf d309 9d3e 3e35 eabe 332b 6b3e
00000170: 8a3b cd3d ac6d 623e 5f2b 62be e58a b1bb
00000180: 92e0 e93e 8e06 23bf b16a a13e 5bb3 243e
00000190: 9745 433e 0a88 95be d706 5f3e 6627 723e
000001a0: cdfc 783e a3d1 83bc d3cd afbe c24a 423d
000001b0: a3dc a53e 921d 533d 9cdb b83e 681e 923d
000001c0: d39f 8c3e 3c8a bdbf ca89 503e 44a4 96be
000001d0: 365d 383e 5e98 38bf 071f 0ebf da88 cd3e
000001e0: 5a7f f83e d991 3ebc 1f97 2ebf 1909 0a3d
000001f0: 67b4 063e af5e 58bd 6e45 f83e f520 3d3e
00000200: 53b5 a9bc 578d 643e 1d5e f93e ed26 643e
00000210: 60ca 05be 0596 6dbe 5b6a 5abe 1175 633e
00000220: 2a42 f83e 2562 c13d 967f 85be 8e43 f73c
00000230: 6f3c e63e 7b0e aabe c2ac d23d 4c07 913c
00000240: 11e9 96be 840b 2fbe 9e51 b2be 5410 a93e
00000250: 1b6f dc3d 9003 13be 61a3 96be 6412 74be
00000260: 35b6 6dbe 15dc babe 7800 b5bd 905c a33d
00000270: d528 9eba b702 8339 733b b33e e37b 8abe
00000280: e125 1ebe ffad bb3d 2184 9bbe 3941 c1bb
00000290: 522f 203f 6243 a73e 9b4f 4a3e 4d24 083d
000002a0: 2d54 a93e 4065 033e 6532 583e 9425 31bd
000002b0: a1d2 f13e 80e3 12bf 349b 4fbc f829 92bd
000002c0: adbe 043f e9d1 60bf 4beb 193e 264b 9a3e
000002d0: 1eec e5be 2f90 3bbf e948 0f3e 46ef 36bf
000002e0: 1c0d 6cbd 9b83 e43d b0da 073e 413a 633e
000002f0: f15c 60be cb0a 663d 7e00 3c3e f699 9d3d
00000300: bec9 a33e b1ee 983e a8c2 c43e 961d 553e
00000310: b76f db3c 686e 97bd ea2b 613e a01d 4ebe
00000320: 03a4 073f bfe6 1c3e 4a0d 173f b4bf c93e
00000330: f6be c33e 5f73 3cbe b283 3cbe b5b7 64be
00000340: 6362 043d 8d37 993e b6fb d13e 8a90 d03c
00000350: f769 d63e 9e50 0fbe 9643 ab3d 39fb cd3e
00000360: 5ab0 673e 7482 273e 6f4d d83c 11f0 bc3e
00000370: 24ea 063e 2918 babd a6bf 2ebd 8f5c 2a3f
00000380: 7c4e 053f 83e2 b83e 960b f5bd 946a 08be
00000390: e372 aa3e 797b f23e a979 f33e 46da d13e
000003a0: 39e6 e6be 5219 f5bd 6e74 db3e c330 913e
000003b0: f511 9f3e 52fe 2dbd ba7f 6b3e 6d69 a93c
000003c0: 6e3f c23d 77a3 923e c46d 383f fc7f 07be
000003d0: fce5 09bd b460 3cbf 13f5 853e a903 523e
000003e0: b790 093e d363 813e 9155 d03c a5b4 4a3e
000003f0: d5b2 ad3f 5a59 3fbe 672f a33e 84e7 a8bc

fc2.bias f4 [64]
-0.018255016 0.20271757 -5.1221545e-05 0.37663448 0.056097105 -0.09262386 0.008906774 0.25542668
0.2772907 0.12797521 0.11260752 -0.005459778 0.040591497 -0.028288778 0.052648276 0.16497214
0.22483306 -0.070078686 0.31156972 0.19293128 0.060065135 0.2728088 0.16347004 -0.0479657
-0.031710148 -0.19828308 0.23054387 0.13134529 0.17830572 -0.131962 -0.10846503 -0.08554098
0.21760988 -0.124954976 0.10057246 0.35694194 -0.13420123 0.03021954 0.19238465 -0.139873
0.015055212 0.14433272 0.33276135 0.092832394 0.025552185 0.10505833 0.16712584 0.12011811
0.19435638 0.049531054 0.16593713 0.15416618 0.16959427 0.06538624 0.1604812 0.070613556
-0.1721113 0.117007926 0.0790719 -0.025051003 -0.056123637 0.27872616 -0.19515933 0.16890106
00000000: 8b8b 95bc 3295 4f3e b7d6 56b8 3cd6 c03e
00000010: 14c6 653d 94b1 bdbd b8ed 113c 49c7 823e
00000020: 0cf9 8d3e ef0b 033e c59e e63d f0e7 b2bb
00000030: 4543 263d debd e7bc b8a5 573d 75ee 283e
00000040: a33a 663e 6a85 8fbd 1186 9f3e c78f 453e
00000050: dc06 763d 98ad 8b3e b164 273e af77 44bd
00000060: 80e2 01bd b80a 4bbe b113 6c3e 617f 063e
00000070: c695 363e 0c21 07be ea22 debd 1c30 afbd
00000080: 20d5 5e3e 65e8 ffbd eff8 cd3d 18c1 b63e
00000090: 0c6c 09be f88e f73c 7b00 453e de3a 0fbe
000000a0: 23aa 763c f5cb 133e b25f aa3e e91e be3d
000000b0: d152 d13c d228 d73d 0923 2b3e 7c00 f63d
000000c0: 5c05 473e 13e1 4a3d 6ceb 293e bddd 1d3e
000000d0: 1faa 2d3e 39e9 853d 2f55 243e d79d 903d
000000e0: f23d 30be daa1 ef3d 73f0 a13d c337 cdbc
000000f0: e6e1 65bd 32b5 8e3e d9d7 47be 66f4 2c3e

fc3_v.weight f4 [32, 64]
0.34568208 0.9338025 0.084923126 -0.0902775 0.034235597 -0.39394197 0.23397772 0.2163389
0.29850528 -0.14857563 0.14628848 -0.34567052 0.1581911 0.036161557 -0.0524601 0.09315039
0.035827436 -0.116885215 0.051483836 0.26774865 -0.19104482 -0.118789054 -1.0064536 0.03425972
0.05760407 0.15767494 -0.63424516 0.375448 0.22020231 -0.14897133 0.014055486 -0.13045764
0.10377944 -0.074709594 0.08330163 0.32746542 -0.096137434 -0.18728012 -0.7168159 -0.07919796
-0.0606734 0.28024685 -0.20423129 -0.13917148 -0.83743554 -0.18514335 0.182574 -0.1216985
-0.020474415 -0.068929985 0.20425965 -0.51356035 0.121640116 0.14283203 -0.2639648 0.3137903
0.4704831 -1.0974872 0.31174904 -0.05954949 0.024286987 0.48035586 -0.21328494 -0.5463653
-0.11688496 -0.16199623 -0.0454983 -0.047217496 0.055789404 0.04891866 0.04526704 0.049867574
0.012959689 0.059358913 0.044262744 -0.16612783 0.012653251 -0.041632745 -0.13930175 -0.14049408
0.04217345 -0.017819937 -0.07199707 -0.043710995 0.026277183 -0.08876678 -0.0402362 -0.015285626
-0.0034612566 0.051165417 -0.029858012 0.032704633 -0.06741868 0.0012405065 0.09042909 0.044515464
0.06507613 0.06501989 0.07164997 -0.103396244 0.0039848667 0.07450907 0.014645805 0.048027776
-0.070354864 -0.01251455 0.0173276 -0.07905918 -0.011069646 -0.06569211 0.061694667 -0.10982266
-0.0019965225 -0.1652392 0.03804746 -0.09330485 0.080289125 -0.07055199 0.0031998125 -0.017818542
0.02371357 -0.11632055 0.0014805263 -0.08393346 -0.010523555 0.052458875 0.0822209 -0.07050242
0.09451565 -0.72161984 -0.33658922 0.17901352 -0.012294244 0.8765101 -0.36689296 0.32512957
-0.083999455 0.1864586 -0.11709005 -0.0849103 -0.20916656 -0.07860089 -0.46156904 0.0752023
0.1898345 -0.6483709 0.21600823 0.1090385 -0.5392917 0.36191225 0.25675428 0.11438895
0.09411037 -0.7887916 0.19549787 0.08311406 0.18762141 -0.02627986 -0.46780404 -0.3664774
0.44012192 -0.10060692 -0.5293423 -0.021610053 -0.7940133 -0.6178354 0.22174782 -0.71129215
0.41141018 -0.22273017 0.4683346 -0.09673567 -0.35089463 -0.30315715 -0.31488827 0.036130615
0.079550706 -0.20222643 0.37919813 0.45673656 -0.04580475 0.33077592 -0.41473186 -0.037424836
-0.7895539 0.6966796 -0.025885146 0.12980963 -0.50387716 -0.4343752 -0.55936944 -0.039285827
-0.12019035 -0.024642661 0.008951346 -0.11440248 -0.0020296127 -0.11896129 0.034253065 0.056616005
0.086688936 -0.09146833 -0.08659653 -0.042536464 -0.033269733 -0.10667808 -0.02808722 0.07820812
0.067413054 0.07641121 -0.08979883 0.06251302 -0.06248444 -0.056459915 -0.026977014 0.01333347
-0.098727256 -0.042228792 -0.15323763 -0.024924304 -0.11166673 0.017628545 -0.09578024 0.041173495
-0.072754666 -0.06876494 -0.043491922 -0.16051787 -0.11088385 -0.07623891 -0.006905151 -0.092578866
0.08307712 -0.1165791 -0.052440763 -0.13103966 -0.111733064 -0.12372704 -0.067161605 0.0062479395
-0.06559198 0.05408694 -0.029139448 0.09914394 0.0542991 0.026024377 -0.009896687 0.019882191
-0.13594864 -0.13224454 0.0631986 -0.0030971915 -0.051813614 0.048637655 0.0613419 -0.10066483
00000000: 3efd b03e ae0d 6f3f 2dec ad3d 69e3 b8bd
00000010: a03a 0c3d c3b2 c9be db97 6f3e f287 5d3e
00000020: afd5 983e 3624 18be a6cc 153e bafb b0be
00000030: d9fc 213e 241e 143d 67e0 56bd a2c5 be3d
00000040: cabf 123d 8461 efbd b7e0 523d 5a16 893e
00000050: 41a1 43be ad47 f3bd 79d3 80bf ec53 0c3d
00000060: 3ff2 6b3d 8a75 213e e45d 22bf b83a c03e
00000070: b77c 613e f18b 18be fb48 663c b096 05be
00000080: 518a d43d 5801 99bd 0c9a aa3d 8ca9 a73e
00000090: b4e3 c4bd 5cc6 3fbe 3f81 37bf 8a32 a2bd
000000a0: ac84 78bd 847c 8f3e 0222 51be f882 0ebe
000000b0: 2d62 56bf 3896 3dbe aef4 3a3e 103d f9bd
000000c0: f6b9 a7bc 2a2b 8dbd 7129 513e b178 03bf
000000d0: 741e f93d 8f42 123e 6526 87be 1fa9 a03e
000000e0: 29e3 f03e 767a 8cbf 929d 9f3e 2bea 73bd
000000f0: 81f5 c63c 34f1 f53e 5e67 5abe 99de 0bbf
00000100: 6261 efbd 57e2 25be 6d5c 3abd 2267 41bd
00000110: 6e83 643d ef5e 483d ef69 393d f141 4c3d
00000120: e054 543c 5522 733d da4c 353d 6a1d 2abe
00000130: 954f 4f3c 1987 2abd 1ea5 0ebe aedd 0fbe
00000140: 11be 2c3d 1efb 91bc 3373 93bd 4d0a 33bd
00000150: 3f43 d73c 5ccb b5bd b7ce 24bd 9070 7abc
00000160: 40d6 62bb d492 513d ca98 f4bc 4bf5 053d
00000170: ce12 8abd 7e98 a23a e332 b93d d955 363d
00000180: a246 853d 2629 853d 38bd 923d 69c1 d3bd
00000190: 7c93 823b 3698 983d f5f4 6f3c c6b8 443d
000001a0: 3616 90bd d409 4dbc 9cf2 8d3c c8e9 a1bd
000001b0: 765d 35bc 9689 86bd 8cb3 7c3d b4ea e0bd
000001c0: 17d8 02bb 7734 29be a7d7 1b3d 9d16 bfbd
000001d0: a06e a43d 907d 90bd f2b3 513b 31f8 91bc
000001e0: f642 c23c 7839 eebd 380e c23a 4ee5 abbd
000001f0: fd6a 2cbc 1edf 563d 6e63 a83d 9363 90bd
00000200: 6c91 c13d 14bc 38bf 6c55 acbe 524f 373e
00000210: cc6d 49bc f762 603f 65d9 bbbe 6277 a63e
00000220: e807 acbd 01ef 3e3e e8cc efbd 74e5 adbd
00000230: c22f 56be 81f9 a0bd c752 ecbe aa03 9a3d
00000240: fa63 423e a3fb 25bf 4331 5d3e 944f df3d
00000250: 050f 0abf 904c b93e 4c75 833e c144 ea3d
00000260: f0bc c03d 3fee 49bf 9830 483e b437 aa3d
00000270: d41f 403e dc48 d7bc 0384 efbe eda2 bbbe
00000280: a957 e13e 000b cebd fa82 07bf 9107 b1bc
00000290: 7544 4bbf 762a 1ebf dc11 633e 3e17 36bf
000002a0: 5ba4 d23e 6113 64be 8dc9 ef3e 5a1d c6bd
000002b0: 76a8 b3be 6a37 9bbe 0939 a1be b2fd 133d
000002c0: 7beb a23d 7214 4fbe 4226 c23e 60d9 e93e
000002d0: c39d 3bbd 765b a93e bc57 d4be c94a 19bd
000002e0: 3420 4abf 9859 323f 160d d4bc d1ec 043e
000002f0: 18fe 00bf 6d66 debe d632 0fbf 2dea 20bd
00000300: 5c26 f6bd 68df c9bc aba8 123c d94b eabd
00000310: 4003 05bb faa1 f3bd f14c 0c3d 2fe6 673d
00000320: f889 b13d bf53 bbbd 8659 b1bd b73a 2ebd
00000330: d845 08bd 0a7a dabd 2b17 e6bc 942b a03d
00000340: db0f 8a3d 7b7d 9c3d 73e8 b7bd d406 803d
00000350: afef 7fbd 8342 67bd e6fe dcbc a074 5a3c
00000360: 8431 cabd 19f8 2cbd 53ea 1cbe 0e2e ccbc
00000370: 87b1 e4bd bd69 903c 6e28 c4bd 8aa5 283d
00000380: 6600 95bd a2d4 8cbd 9624 32bd cc5e 24be
00000390: 1217 e3bd 2523 9cbd 9b44 e2bb fd99 bdbd
000003a0: 5624 aa3d 06c1 eebd 20cc 56bd 432f 06be
000003b0: 4ed4 e4bd 9a64 fdbd 068c 89bd 84bb cc3b
000003c0: 1755 86bd 448a 5d3d dab5 eebc fa0b cb3d
000003d0: bc68 5e3d 1331 d53c b725 22bc fadf a23c
000003e0: 1f36 0bbe 1d6b 07be 456e 813d 40fa 4abb
000003f0: 833a 54bd 4738 473d a541 7b3d 5d29 cebd

fc3_v.bias f4 [32]
0.037895944 0.0009218315 0.32766506 0.014283381 0.118055664 0.2306967 -0.022752149 0.37634975
0.039459534 0.0918389 0.23013017 -0.13803646 0.24795158 -0.06652252 -0.07526836 0.3182127
0.28198665 0.26242435 0.00064219633 0.26068658 -0.113070376 0.084842585 0.26085863 0.30859092
0.23454031 0.3062778 0.10623622 0.3216288 0.27793637 0.28420198 -0.021386122 0.07963065
00000000: c738 1b3d 11a7 713a b7c3 a73e d804 6a3c
00000010: 2bc7 f13d c13b 6c3e b762 babc eab0 c03e
00000020: 52a0 213d 0916 bc3d 3ea7 6b3e 6e59 0dbe
00000030: 05e7 7d3e f53c 88bd 4c26 9abd c6ec a23e
00000040: 8e60 903e 7c5c 863e 1159 283a b678 853e
00000050: 7191 e7bd f3c1 ad3d 438f 853e a1ff 9d3e
00000060: 562b 703e 72d0 9c3e 6092 d93d 88ac a43e
00000070: ad4d 8e3e ec82 913e f331 afbc 6515 a33d

fc4_v.weight f4 [1, 32]
-1.0443857 0.08571357 0.84039795 -0.034097955 -0.42299926 0.81145036 -0.6063019 0.90899277
-0.056095697 0.06197291 -0.50809646 0.13933742 1.3785818 -0.008902786 0.14134961 0.9324236
0.95844746 0.8226179 0.10372683 -0.45731673 -0.13882673 -0.43871945 -0.47266555 0.82363284
-0.28839818 -0.32255855 -0.3006229 -0.46525538 -0.45113695 -0.4102251 1.1170805 -0.44329944
00000000: 6eae 85bf 998a af3d 5224 573f 4caa 0bbd
00000010: 5c93 d8be 36bb 4f3f 9a36 1bbf c0b3 683f
00000020: 9ac4 65bd 4ed7 7d3d 9c12 02bf 78ae 0e3e
00000030: 5e75 b03f fedc 11bc f4bd 103e 50b3 6e3f
00000040: d05c 753f 1697 523f bb6e d43d 6b25 eabe
00000050: 9828 0ebe d69f e0be 3801 f2be 9ad9 523f
00000060: eda8 93be 6526 a5be 3feb 99be f435 eebe
00000070: 6cfb e6be 0609 d2be 7efc 8e3f 25f8 e2be

fc3_a.weight f4 [32, 64]
-0.22940907 -0.018253967 -0.19926114 0.21953273 -0.034921497 0.032856487 -0.24886376 0.0013160547
-0.087693736 0.13605176 -0.41446185 0.027146405 0.04120467 -0.20810722 -0.071541555 0.01667747
0.11172995 -0.18182325 0.011677954 0.02530097 -0.059631974 0.036855657 0.13392706 0.01068741
0.0070274402 -0.34425762 0.00250117 -0.018158881 0.03306158 -0.019415608 -0.3115935 0.072594926
-0.082351275 0.082546994 -0.21448919 0.30984962 -0.18435533 -0.19601454 0.34345946 -0.13472317
-0.43229827 0.27923936 0.15573215 0.015428821 -0.15136738 0.17822392 -0.32473776 0.14531597
0.09300519 -0.009452606 0.13628776 -0.14770874 0.08639519 0.01681689 -0.039419185 0.023049193
-0.4707721 0.16301201 -0.2528564 0.092074856 -0.23299025 -0.018642204 -0.005461522 -0.0440262
0.24572791 -0.17238724 -0.39220965 0.04915756 0.08385664 0.57859725 -0.110884205 -0.03247392
0.31842884 -0.25113207 0.040331233 -0.082636945 0.14169708 0.19452415 -0.47927302 -0.060574707
0.07125029 -0.5935245 -0.0064049205 -0.19327182 -0.25059396 -0.056222435 -0.42685425 -0.07216955
-0.081295356 -0.5779684 0.06147967 -0.28313282 -0.1688562 -0.001761734 -0.40523273 -0.8775574
0.022775466 0.071680784 -0.4621986 0.16377406 -0.22747418 -0.47040528 -0.14435306 -0.2842579
0.7128213 -0.089299634 -0.042601492 -0.27099052 0.085966885 -0.19338135 -0.34720945 -0.0799081
-0.036086153 -0.5670782 0.17827092 -0.3446137 0.079159744 -0.118330695 0.15020843 -0.050991952
-0.16886705 0.22563437 -0.121240966 0.10108807 -0.21462856 0.49762833 0.03227953 -0.42011595
-0.27565858 -0.58521426 0.3122426 0.09968394 -0.0053282455 -0.36456063 0.17836852 0.013549991
-0.09307439 -0.17786591 0.032637388 -0.28367293 -0.16210668 -0.29522502 -0.17750186 0.12648916
0.12347395 -0.011213135 -0.06423903 -0.08174521 0.09375661 0.10432068 -0.024646014 0.078609824
-0.05000311 -0.19233645 -0.24678896 -0.08354412 0.053954516 -0.37314522 -0.07841663 -0.04104547
-0.07761376 -0.02544699 0.20083503 0.22285117 -0.21301523 -0.11530492 0.1604905 0.18885137
0.028324537 0.27252096 0.24921937 0.07662077 -0.2744346 0.22927466 0.115124375 0.10441503
0.109444864 0.21462865 -0.18335481 0.24707998 0.2509005 -0.32539147 -0.21421365 -0.10770711
-0.10955371 0.38737518 0.033550292 -0.005434349 -0.07424948 -0.06815585 -0.21671367 0.0057173753
-0.051185198 -0.525386 0.08164018 -0.010090551 0.011494016 0.38947365 -0.27507406 -0.13244566
0.06448958 0.052190043 0.18349543 -0.14847055 0.10711894 -0.26731575 -0.24155323 -0.134096
-0.0011879803 0.11956844 -0.06435929 -0.3078265 0.033920895 0.087852 0.31028962 -0.08146744
0.11603825 0.0969941 0.08896873 -0.21038054 -0.056634955 -0.115244515 0.38403624 0.25831607
-0.14935942 -0.11498974 0.11030538 -0.26797384 0.23795973 0.19843215 0.06371403 0.11985579
0.19609463 -0.1099286 0.08772948 -0.10955725 -0.23431198 -0.23394088 0.42525682 -0.249439
0.008406176 0.33450058 -0.06117437 0.15130308 0.116741806 -0.21129045 -0.4999632 -0.049729668
0.6472891 0.21468273 0.11607436 -0.12244029 0.09137893 -0.18147638 0.017080413 0.12229831
00000000: 36ea 6abe 5889 95bc 1d0b 4cbe 30cd 603e
00000010: d809 0fbd 8694 063d 24d6 7ebe 787f ac3a
00000020: c698 b3bd 2751 0b3e 5834 d4be 2362 de3c
00000030: 3ac6 283d 0f1a 55be 6184 92bd 319f 883c
00000040: acd2 e43d e02f 3abe e454 3f3c fb43 cf3c
00000050: a840 74bd f5f5 163d 2d24 093e 3f1a 2f3c
00000060: 7146 e63b 8942 b0be abea 233b efc1 94bc
00000070: 946b 073d 7b0d 9fbc 2f89 9fbe a6ac 943d
00000080: c9a7 a8bd 660e a93d 0ea3 5bbe 9ca4 9e3e
00000090: a5c7 3cbe 09b8 48be ebd9 af3e dff4 09be
000000a0: 3356 ddbe 76f8 8e3e 4078 1f3e 2ac9 7c3c
000000b0: 0d00 1bbe 5580 363e 0744 a6be b6cd 143e
000000c0: 8179 be3d 1adf 1abc 058f 0b3e f640 17be
000000d0: f6ef b03d 93c3 893c 0376 21bd a9d1 bc3c
000000e0: 0a09 f1be 9fec 263e 6576 81be be91 bc3d
000000f0: ff94 6ebe 89b7 98bc 91f6 b2bb d154 34bd
00000100: 19a0 7b3e 4886 30be b4cf c8be 7059 493d
00000110: 08bd ab3d f31e 143f 4217 e3bd 6003 05bd
00000120: 1b09 a33e 6294 80be 5d32 253d 8f3d a9bd
00000130: 0a19 113e 5731 473e 4663 f5be 2f1d 78bd
00000140: aceb 913d 39f1 17bf 5ee0 d1bb 0ce9 45be
00000150: da4d 80be 7f49 66bd a48c dabe a1cd 93bd
00000160: 2e7e a6bd bdf5 13bf 1bd2 7b3d c9f6 90be
00000170: a4e8 2cbe fce9 e6ba aa7a cfbe 9aa7 60bf
00000180: 9d93 ba3c 60cd 923d 4ba5 ecbe 63b4 273e
00000190: feee 68be f6d8 f0be 4ad1 13be 408a 91be
000001a0: 757b 363f bae2 b6bd e77e 2ebd 45bf 8abe
000001b0: 680f b03d c305 46be 70c5 b1be dca6 a3bd
000001c0: 13cf 13bd 092c 11bf a78c 363e 3571 b0be
000001d0: 811e a23d 5d57 f2bd 3dd0 193e f0dc 50bd
000001e0: 7ceb 2cbe b20c 673e 2f4d f8bd 4307 cf3d
000001f0: 97c7 5bbe 24c9 fe3e 8a37 043d 7019 d7be
00000200: 1f23 8dbe 9ad0 15bf 43de 9f3e 1827 cc3d
00000210: 9098 aebb b1a7 babe 3da6 363e c800 5e3c
00000220: c99d bebd 7b22 36be c8ae 053d 943d 91be
00000230: 4bff 25be bc27 97be 0cc3 35be 6086 013e
00000240: e9df fc3d 4cb7 37bc c18f 83bd 086a a7bd
00000250: 7703 c03d 15a6 d53d 70e6 c9bc 30fe a03d
00000260: 10d0 4cbd d9f3 44be 3fb6 7cbe 2e19 abbd
00000270: 69ff 5c3d e40c bfbe e698 a0bd 4b1f 28bd
00000280: f7f3 9ebd 3576 d0bc b3a7 4d3e 1933 643e
00000290: aa20 5abe fc24 ecbd 9f57 243e 4162 413e
000002a0: dc08 e83c de87 8b3e 5d33 7f3e 5aeb 9c3d
000002b0: b182 8cbe fac6 6a3e 54c6 eb3d 8cd7 d53d
000002c0: a124 e03d 9dc7 5b3e 5dc1 3bbe 8902 7d3e
000002d0: 0876 803e b699 a6be d35a 5bbe 8c95 dcbd
000002e0: b25d e0bd 0a56 c63e 086c 093d a012 b2bb
000002f0: 1d10 98bd 4b95 8bbd 30ea 5dbe d258 bb3b
00000300: 92a7 51bd b27f 06bf f732 a73d d752 25bc
00000310: 6651 3c3c 1769 c73e 82d6 8cbe d69f 07be
00000320: 1d13 843d 3ac5 553d 3ae6 3b3e aa08 18be
00000330: 2d61 db3d 9cdd 88be bb59 77be 7650 09be
00000340: 01b6 9bba 4ce0 f43d cece 83bd 6f9b 9dbe
00000350: a3f0 0a3d c0eb b33d 48de 9e3e 67d8 a6bd
00000360: 76a5 ed3d d8a4 c63d 3d35 b63d ff6d 57be
00000370: 0efa 67bd 5105 ecbd 66a0 c43e 0142 843e
00000380: adf1 18be be7f ebbd c9e7 e13d de33 89be
00000390: b7ab 733e cc31 4b3e 807c 823d f476 f53d
000003a0: 08cd 483e 3f22 e1bd 83ab b33d 8d5f e0bd
000003b0: 7bef 6fbe 338e 6fbe 43bb d93e f06c 7fbe
000003c0: 0fba 093c a943 ab3e fa91 7abd 32ef 1a3e
000003d0: 5416 ef3d 865c 58be 2dfb ffbe 56b1 4bbd
000003e0: bdb4 253f cad5 5b3e 65b8 ed3d fac1 fabd
000003f0: e024 bb3d f2d4 39be 39ec 8b3c 8977 fa3d

fc3_a.bias f4 [32]
0.35793585 0.17942706 0.048685353 -0.1216266 -0.19508994 0.029403735 -0.1036259 0.07074122
-0.08007624 0.0934645 0.02457164 0.019160308 -0.31261817 0.18668601 0.16051994 0.12733832
-0.17080003 -0.099490754 0.13223208 -0.12955815 -0.043836553 -0.02503696 0.3539262 0.25492138
-0.05020467 0.25263125 -0.2627684 -0.30942312 0.1233127 -0.12346392 -0.022338731 0.31015623
00000000: 5e43 b73e babb 373e 4b6a 473d 5e17 f9bd
00000010: a8c5 47be 1ae0 f03c d139 d4bd c6e0 903d
00000020: 03ff a3bd 516a bf3d 774a c93c 14f6 9c3c
00000030: 7d0f a0be 9e2a 3f3e 575f 243e fa64 023e
00000040: 34e6 2ebe cfc1 cbbd d967 073e e4aa 04be
00000050: f58d 33bd 501a cdbc d135 b53e 0e85 823e
00000060: 69a3 4dbd e258 813e 9489 86be b56c 9ebe
00000070: 5e8b fc3d a7da fcbd b7ff b6bc cccc 9e3e

fc4_a.weight f4 [4, 32]
-0.07257081 0.10945531 -0.4872076 0.3697564 0.26666588 -0.31272212 -0.095242456 0.06966864
-0.17897765 0.19462623 -0.0045030206 -0.016503409 0.5385345 0.09967572 -0.09949451 -0.04369836
-0.14742695 0.13162436 0.18949965 -0.52794355 0.05925341 0.20230144 0.13972452 -0.2674741
-0.17765734 -0.33117095 0.25576675 -0.24790691 0.13070312 0.11343152 0.24030684 -0.38923815
0.23139292 0.3932702 0.0025375572 -0.33691108 -0.14191622 -0.09826652 -0.083050765 -0.027507646
-0.08891896 0.63205993 0.14335763 0.14299995 0.7789081 -0.19044366 -0.20467603 -0.23581916
-0.09487369 -0.069536954 -0.85630965 -0.2067324 -0.026859365 -0.14669079 -0.070906974 0.8565616
0.06377238 0.2994054 -0.14334726 0.055205386 0.28025478 0.022173114 0.42167854 -0.1463487
0.08881707 -0.3248796 0.415589 0.043234956 -0.30830604 0.4058288 0.058132473 -0.3094878
-0.08049659 -0.11979353 0.4875808 -0.028438337 -1.0269988 0.46596643 0.45596755 0.2340641
-0.14841628 -0.16503328 0.25975507 0.102840506 -0.11565646 -0.030281028 0.1814435 -0.38652128
0.039242566 0.2165617 -0.21938017 -0.11433449 -0.55498815 -0.11458222 -0.35348055 0.8381529
-0.24983431 -0.12421188 -0.08315254 -0.32541528 0.20759457 0.18859757 0.14733452 0.108190015
0.11886108 -0.49377885 -0.27633062 0.12164154 0.23231123 -0.113833465 -0.0021263256 -0.116011225
0.34084648 0.18563932 0.43700418 0.21886443 -0.038144916 -0.33930844 -0.53373826 0.20830771
0.1400534 -0.20589352 0.060582098 0.25038618 0.05476052 0.17323212 -0.41229624 -0.50738823
00000000: 01a0 94bd 1b2a e03d 4673 f9be b650 bd3e
00000010: 6e88 883e 1d1d a0be 7a0e c3bd 6fae 8e3d
00000020: eb45 37be 194c 473e 138e 93bb 2832 87bc
00000030: 66dd 093f c922 cc3d c7c3 cbbd 0dfd 32bd
00000040: 17f7 16be 89c8 063e 320c 423e 4f27 07bf
00000050: b4b3 723d 1c28 4f3e f213 0f3e 5ef2 88be
00000060: ceeb 35be 3d8f a9be dcf3 823e 4fdb 7dbe
00000070: 0ad7 053e c94e e83d ff12 763e 394a c7be
00000080: 44f2 6c3e b65a c93e 254d 263b 9c7f acbe
00000090: 7c52 11be f53f c9bd 8516 aabd b757 e1bc
000000a0: 251b b6bd aece 213f 58cc 123e 946e 123e
000000b0: 8566 473f aa03 43be 9896 51be 947a 71be
000000c0: 234d c2bd 6469 8ebd 1c37 5bbf a9b1 53be
000000d0: 2c08 dcbc 1c36 16be ad37 91bd 9f47 5b3f
000000e0: 189b 823d aa4b 993e a0c9 12be 0b1f 623d
000000f0: 8e7d 8f3e 64a4 b53c 40e6 d73e 6fdc 15be
00000100: b9e5 b53d 9e56 a6be 15c8 d43e 2317 313d
00000110: 4ada 9dbe cbc8 cf3e 511c 6e3d 2f75 9ebe
00000120: 65db a4bd 4f56 f5bd 31a4 f93e 84f7 e8bc
00000130: b274 83bf 2793 ee3e 9474 e93e 80ae 6f3e
00000140: 70fa 17be 7cfe 28be 9efe 843e 0b9e d23d
00000150: 4bdd ecbd eb0f f8bc 53cc 393e 1ee6 c5be
00000160: d0bc 203d 5ac2 5d3e 32a5 60be 3328 eabd
00000170: b413 0ebf 15aa eabd 67fb b4be 3091 563f
00000180: 91d4 7fbe cc62 febd e14b aabd d59c a6be
00000190: ac93 543e b91f 413e dcde 163e ba92 dd3d
000001a0: 706d f33d 95d0 fcbe 357b 8dbe 331f f93d
000001b0: ffe2 6d3e 8521 e9bd d359 0bbb 4b97 edbd
000001c0: 6e83 ae3e 3c18 3e3e 03bf df3e ff1d 603e
000001d0: d83d 1cbd d6b9 adbe 12a3 08bf 9e4e 553e
000001e0: 296a 0f3e c0d5 52be ef24 783d 9e32 803e
000001f0: 914c 603d c363 313e 7e18 d3be 32e4 01bf

fc4_a.bias f4 [4]
0.1763173 -0.026272755 0.043717187 -0.25210753
00000000: 868c 343e f639 d7bc cb10 333d 3d14 81be
